Sistla_Anirudh_HW2/model/cnn.pt (torch, 687575 bytes, 32 tensors)

conv1.weight f4 [32, 3, 5, 5]
000000 0a 7d a8 bd 5e 25 06 be d7 28 66 be 7b fc fa bd
       -0.08226974 -0.13100192 -0.22476517 -0.12255188
000010 d7 a7 68 be de 07 17 3d 70 0e 92 bd e1 fa 09 bb
       -0.22720276 0.036872737 -0.0713166 -0.0021054076
000020 e8 33 5d bd f8 49 57 3d 95 1b 57 3d e5 78 2a 3e
       -0.05400458 0.052560776 0.05251654 0.1664768
000030 05 1d 41 3d dd 00 65 bc c7 ca 08 3e 21 02 5a 3e
       0.047146816 -0.013977257 0.13358603 0.21289875
000040 86 44 36 3e 64 91 9d 3e 13 ed 2a 3e da ca 37 3e
       0.17799577 0.30774987 0.16691999 0.17948475
000050 50 cd 77 3d 6e bd 51 3c cc 22 7f 3e ae 86 40 3e
       0.060498536 0.012801511 0.24915618 0.18801376
000060 54 41 d7 3d 80 a8 08 3e c2 c0 7d 3d 19 d2 0e 3d
       0.10510507 0.13345528 0.061951406 0.034868333
000070 5b ef 17 be d9 95 f4 bd 1e c1 c2 bd bd f4 89 bd
       -0.148374 -0.11942644 -0.095094904 -0.06736133
000080 2d a0 13 be fa 59 e4 bc c6 bb c2 bd ad 44 d7 bd
       -0.14416571 -0.027874935 -0.09508471 -0.10511146
000090 d9 ff 8c 3d cc 87 0d be 75 1a 02 bd 66 7b 52 be
       0.068847366 -0.13821334 -0.031763513 -0.20554885
0000a0 1e e6 fe 3c c5 2d 87 3d 9e 97 31 bd 7e 6c 69 3d
       0.031115588 0.06600527 -0.043357484 0.05698823
0000b0 fd d7 3d be 3f dd 02 be a4 19 5c 3d cb cd 12 3e
       -0.18539424 -0.12779711 0.05373539 0.14336316
0000c0 ef 1e cb 3d 83 34 8f bd 88 7f 1a 3e 73 dd 5a 3e
       0.099180095 -0.06992438 0.15087712 0.21373539
0000d0 64 24 a3 3d c0 96 87 bc 9e 26 0e 3d 3b e1 40 3e
       0.07965925 -0.016551375 0.034704797 0.18835919
0000e0 79 64 04 3e f1 b3 4a 3e 2c 7b 17 3d 1a 71 88 bd
       0.12928952 0.19795205 0.0369827 -0.066621974
0000f0 2b c2 13 3e e4 d5 22 3e 71 34 c6 3d 72 c3 9b bd
       0.14429538 0.15901905 0.09677971 -0.076056376
000100 fa aa 47 be 89 ed b2 bd af 72 8e 3c 22 1e 28 3d
       -0.19498816 -0.087367125 0.01738867 0.041044362
000110 d6 ff 55 be c5 b5 f0 bd ad 18 43 be a4 fe a5 bd
       -0.20898375 -0.1175342 -0.19052382 -0.081052095
000120 d0 b6 02 be c8 62 d7 bb 65 02 6a bd 86 08 5a 3d
       -0.1276505 -0.006573055 -0.05713119 0.053230785
000130 83 fd 20 3c d1 23 09 3d ca 38 b6 bd 94 87 c8 bc
       0.009826067 0.033481423 -0.088975504 -0.024478711
000140 b4 b7 cd 3d 78 9f 41 3d ac ff 11 3e d1 c1 81 bc
       0.10044804 0.047271222 0.14257687 -0.01583949
000150 71 6c 64 bd f4 28 b6 3d d2 75 fd 3d 6e 60 79 3e
       -0.05576748 0.0889453 0.12375988 0.24353191
000160 43 01 03 3e e0 c9 14 be 9b d1 6d 3e f2 fb 35 3e
       0.1279345 -0.14530134 0.2322449 0.17771891
000170 68 38 04 3e a4 8f 20 3d 3d 7c 76 be 80 fa 79 3e
       0.12912142 0.039199486 -0.2407083 0.24411964
000180 d0 c7 e2 3d e1 5c 3d 3b db 7d c2 bd c3 7b 89 be
       0.110732675 0.0028894471 -0.09496661 -0.26852235
000190 ec c6 23 be f3 8a e7 bc 88 02 27 be 70 7b fe bd
       -0.15993851 -0.028264498 -0.1630956 -0.124258876
0001a0 ff c2 84 3d 17 d5 0f be 26 16 8c bd db 78 5b bd
       0.06482505 -0.14046131 -0.06840162 -0.053582054
0001b0 9b f2 2a be 69 38 45 bd fa bd 3f bd dc a2 87 bd
       -0.16694109 -0.0481495 -0.046812035 -0.0662286
0001c0 4d 24 87 be 02 bd c8 bd 18 6d ce 3c 68 41 f5 bc
       -0.26394883 -0.098016754 0.025198504 -0.029938415
0001d0 21 e7 18 bd d9 4d 27 be 4c 53 1d be 83 bb a2 be
       -0.037329797 -0.1633829 -0.15363806 -0.31783685
0001e0 48 65 c4 3d ce 27 8c 3d b4 ac 02 3d 7b 4c 90 bd
       0.0958963 0.0684353 0.031902984 -0.070458375
0001f0 44 dc 51 be 51 2d 4d 3d 34 d3 45 bd f9 7c 06 3e
       -0.20494181 0.050092045 -0.048297122 0.13133611
000200 09 fd 10 3e 01 c0 42 3e 06 90 43 3c b9 04 3a bd
       0.14159025 0.19018556 0.011936193 -0.04541466
000210 2e bb f0 bc 90 5c 0d 3e 1b 8d 79 3e a2 a5 48 bd
       -0.02938613 0.13804841 0.24370234 -0.048986085
000220 2d 9d 0b be fe 72 db bb f3 ec 99 bd b8 aa 49 3e
       -0.13634177 -0.0066970577 -0.075158976 0.1969403
000230 94 91 aa 3d f4 00 df 3c fb 54 08 be c7 bd bb 3b
       0.08328548 0.027222134 -0.13313667 0.0057294103
000240 8d f9 e8 3c 7b 25 2e 3d 4a 8e 9f 3d 9c d3 6c 3b
       0.028439308 0.042516213 0.07790811 0.0036136871
000250 45 37 78 be f0 34 fa bd 7d 02 85 3d 18 f3 cb 3d
       -0.24239834 -0.12217128 0.06494615 0.09958476
000260 a0 ac 99 3c 07 f8 c3 3d 2e 93 4b 3d f0 04 8b bd
       0.018759072 0.09568792 0.04970091 -0.06788051
000270 47 e1 a0 bc 0e f5 4a 3e 4c 6f 6e bb ef 66 cc bd
       -0.01963867 0.19820043 -0.0036382256 -0.099805705
000280 dc 87 02 be 55 5a 9a be 6a 07 c6 be d3 23 87 be
       -0.12747139 -0.30147043 -0.3867753 -0.2639452
000290 3d aa 5a 3c 35 6c fb 3d 0a de 40 bd ed 93 6e 3d
       0.013346252 0.12276498 -0.047086753 0.05824654
0002a0 fb 57 13 3e c3 b5 df 3c 31 7d c5 3d c4 53 d4 3d
       0.1438903 0.02730835 0.09643019 0.103675395
0002b0 e1 9c 2c 3b 4b 0b f3 3d 71 27 d3 bb 17 94 a2 bd
       0.0026338624 0.11867388 -0.0064439108 -0.07938402
0002c0 60 f6 ea 3d 0d 5b d3 bd ad 0d e5 3c 25 f9 fd 3c
       0.114727736 -0.10320101 0.027960623 0.03100259
0002d0 4e a7 35 3c 10 03 d0 3d 30 c5 25 3e 13 10 b0 3d
       0.011087252 0.10156834 0.16188502 0.08596816
0002e0 f5 29 3a bd b2 71 52 bd 5e 51 ba bd e0 40 aa be
       -0.04545017 -0.05137796 -0.09097551 -0.3325262
0002f0 15 4f 25 be dd 6f 44 3c 8f af e0 bc 12 c1 1e 3e
       -0.16143449 0.011989561 -0.027427463 0.15503338
000300 99 00 51 3e c0 dc cc 3d f4 04 73 3d 04 8a c1 3c
       0.20410384 0.10003042 0.059330896 0.023625381
000310 e6 3e a7 38 48 f5 74 3d 20 54 ba bd fa ab 89 bb
       7.974896e-05 0.05980423 -0.09098077 -0.0042014094
000320 1a ee 16 3d f0 58 10 be 08 00 f7 bc 5c 57 1f be
       0.036848165 -0.14096427 -0.030151382 -0.15560669
000330 69 a6 69 bd 1d ff 2e bd 16 35 0f 3e a2 a4 01 3e
       -0.057043467 -0.042723764 0.13985094 0.12660459
000340 06 35 5c 3e 73 9a 36 3d 7f ab e4 3d fe 7d 49 bd
       0.21504602 0.044580888 0.11165523 -0.04919242
000350 98 f7 64 be 65 2a e4 bd f9 68 28 3a 93 5e 12 3e
       -0.22360075 -0.111408986 0.00064243336 0.1429389
000360 df 28 8f bc f6 57 40 3e 08 45 b6 3b b6 d9 e7 3d
       -0.017475544 0.18783554 0.0055624284 0.11320822
000370 31 f9 2d be 2b 59 9f bb ab c8 8f bd 40 b7 71 bd
       -0.1698959 -0.0048629246 -0.07020696 -0.05901265
000380 83 fd 14 be 2c 23 90 bc 31 e3 12 3e 5f 60 a0 3d
       -0.14549832 -0.017594896 0.14344479 0.07830881
000390 f2 f0 80 bd 83 4e 5d bd 0d 5a e2 bd 8b 79 9b be
       -0.06295957 -0.054029953 -0.11052332 -0.30366167
0003a0 c0 85 e5 3d 8d 2d 0b 3e 85 16 aa 3c 45 7c bb 3d
       0.112071514 0.13591595 0.020762691 0.09154562
0003b0 36 b6 4e be 3a 57 59 be 30 89 97 bd 7e 17 49 3d
       -0.20186695 -0.2122468 -0.07399213 0.04909467
0003c0 cb ed 06 3e e2 df 63 3e 69 43 ac bc fa 2d 9c bd
       0.13176648 0.22253373 -0.021028237 -0.07625957
0003d0 9c 1a 24 bc cb 77 c7 bd b4 a5 8f 3d 95 90 09 3d
       -0.01001611 -0.097396456 0.07014027 0.03358515
0003e0 8d ec c3 3d e9 b6 85 3d 27 d1 5d bd 0e a9 b9 bc
       0.09566603 0.06529028 -0.05415454 -0.02266362
0003f0 1b e6 b7 3d 6e 8b 2c bd 2a f6 3e bd 43 fd 6e 3d
       0.08979436 -0.042125158 -0.04662148 0.058346998

conv1.bias f4 [32]
000000 8e fc a3 bc c3 b8 1b 3e 4f 8d 95 bd 5c e8 4f be
       -0.020017888 0.152072 -0.07302343 -0.20303482
000010 f7 d8 2d 3d 99 17 33 3e 67 db 51 3d b3 7f 6f bd
       0.042443242 0.1748947 0.05123463 -0.058471393
000020 8f 98 ec bd 9e 78 07 be a0 e6 d5 3d 07 02 3c be
       -0.11552536 -0.13229606 0.10444379 -0.18360148
000030 80 85 08 3e bb 71 5d 3d 70 cf 61 3d fa 93 51 be
       0.13332176 0.05406354 0.05512947 -0.20466605
000040 af 6a c3 bd 45 49 ca 3d 4b d3 f0 bc 6d 80 76 3d
       -0.09541833 0.09877256 -0.029397627 0.06018107
000050 fa 8e 86 3d 3f 8a c5 3d c5 40 f7 3d 40 48 41 3d
       0.06570239 0.09645509 0.12072901 0.047188044
000060 38 83 70 bd cf 47 83 3d 18 74 17 3e 40 94 e1 3d
       -0.05871889 0.06410181 0.1479038 0.110146046
000070 f5 a0 08 be d0 06 80 bd 32 d5 66 3e 99 6d 1a 3e
       -0.1334265 -0.062512994 0.22542265 0.1508087

bn1.weight f4 [32]
000000 89 07 68 3f 87 de 8a 3f 70 d1 7b 3f ed 26 67 3f
       0.906365 1.084916 0.9836645 0.9029377
000010 66 13 47 3f 56 ba 65 3f 94 dc 71 3f 53 c3 86 3f
       0.77763975 0.8973745 0.944772 1.0528358
000020 06 cd 5b 3f 72 42 5f 3f a2 83 4e 3f e1 83 73 3f
       0.85859716 0.8721076 0.80669606 0.95123106
000030 b1 70 69 3f be 38 7f 3f 7e 66 79 3f 69 92 73 3f
       0.9118758 0.99695957 0.97422016 0.9514528
000040 5b ea 6e 3f fb 7d 85 3f f1 62 80 3f 73 47 8e 3f
       0.9332635 1.0429071 1.0030195 1.1115555
000050 bc a9 79 3f 05 22 85 3f 91 e2 5d 3f e3 5d 7a 3f
       0.9752462 1.0401007 0.8667384 0.9779951
000060 55 a3 6e 3f 77 90 87 3f 86 33 8a 3f 5d b1 79 3f
       0.93217975 1.0590962 1.0796974 0.9753626
000070 c1 d7 85 3f cb f2 78 3f a9 28 77 3f 9c d2 68 3f
       1.0456468 0.9724547 0.9654642 0.90946364

bn1.bias f4 [32]
000000 9f 13 84 be 54 98 11 bf 4d ff 6a be 12 11 ac be
       -0.2579622 -0.5687306 -0.22948952 -0.33606774
000010 fa 13 09 bf 7c 8f 7a bd b2 b2 92 bd 45 8d 30 be
       -0.53546107 -0.061171994 -0.0716299 -0.1724139
000020 5b e1 ef be d9 ed 8a be 7c d9 c0 be 6a 81 3c be
       -0.4685162 -0.27134588 -0.37665927 -0.18408743
000030 a7 63 bf be 4b a2 d0 be 6b d6 c4 be d2 c9 33 3d
       -0.37380716 -0.4074882 -0.38444838 0.043893643
000040 95 5a ad be 5f 2e a4 bd c4 a7 9a ba 23 1f 03 bf
       -0.3385817 -0.08016657 -0.0011799266 -0.51219386
000050 d0 e3 ff be 0a 56 7a 3d bc 74 57 3d 37 d4 11 be
       -0.49978495 0.06111721 0.05260156 -0.1424111
000060 63 ac d3 be 11 a9 22 be 29 05 71 be a3 69 14 be
       -0.41342458 -0.15884806 -0.23537125 -0.14493422
000070 d1 f3 29 bf 4a 7b cf be ec 7e c3 be 92 dd 61 be
       -0.6638766 -0.4052375 -0.3818277 -0.22057179

bn1.running_mean f4 [32]
000000 26 86 08 bd ae 07 45 3e f1 04 63 bd f6 5f 46 be
       -0.03333106 0.19241211 -0.055424634 -0.19372544
000010 45 6a 1d 3d 92 54 ca bc 1d 75 5f 3d 82 a5 81 bd
       0.038431425 -0.02469853 0.054555047 -0.06330396
000020 50 34 3b be 9c 62 00 be 50 c2 01 3e d7 e6 3f be
       -0.18281674 -0.12537616 0.1267178 -0.18740402
000030 d6 7c 0b 3e a4 23 e7 3d 14 6b 9e be 24 90 d2 be
       0.1362184 0.11286095 -0.3094107 -0.41125596
000040 16 d2 b9 bd 38 dd 17 3e a4 bf e6 bd 1a 6f 09 3d
       -0.09073274 0.14830482 -0.11267021 0.03355322
000050 26 6d 7b 3d fc 56 4c 3e 72 d3 10 3e ad eb 25 be
       0.06138339 0.19955057 0.1414316 -0.16203184
000060 c2 f3 66 bd 16 73 e4 3d 0e 8c 13 3e 6b 75 03 bd
       -0.05638481 0.111547634 0.14408895 -0.0320944
000070 8a 73 84 3c 1b 87 96 bd 8a 07 65 3e c0 c1 1b 3e
       0.016168375 -0.07349988 0.22366157 0.15210629

bn1.running_var f4 [32]
000000 49 03 93 3e 2d 29 b9 3e a5 d3 4e 3d 75 19 88 3d
       0.28713444 0.36164227 0.05049481 0.066454805
000010 65 ee b4 3d 79 3b c0 3e 92 92 7e 3d 70 ea 95 3d
       0.08834533 0.37545374 0.0621515 0.07320106
000020 ca 31 80 3e cd 8d b4 3d c8 b9 82 3e cf b9 66 3d
       0.25037986 0.08816109 0.25532365 0.056329545
000030 8a 5d 19 3d 0f 05 fd 3e b1 2f 97 3f ee 34 e8 3e
       0.03744272 0.49417922 1.1811429 0.45352882
000040 3c 20 1d 3e 5a 4f 31 3e de 17 2a 3e 12 73 86 3f
       0.15344328 0.17315426 0.16610667 1.0503867
000050 16 ad 28 3d 76 b8 68 3e c3 ec ef 3d 09 25 2a 3f
       0.041180693 0.22726616 0.117150806 0.6646276
000060 b4 33 0b 3d 76 89 fe 3d f2 e8 0b 3d b5 4b 60 3e
       0.033984855 0.12428562 0.0341577 0.2190388
000070 d0 0c 3e 3f 19 f0 e3 3d 7a da 62 3d 87 5b 41 3d
       0.742383 0.11129779 0.055384137 0.047206428

conv2.weight f4 [64, 32, 3, 3]
000000 99 d5 94 3b b1 d9 5e 3d c4 24 4b 3d ce f6 6b bd
       0.0045420644 0.054406825 0.04959561 -0.05760842
000010 4e 81 ff bd 81 50 3a bd a8 a8 e0 3d ac 56 1a bd
       -0.12475835 -0.04548693 0.109696686 -0.037680313
000020 20 69 02 3e 0c 50 b9 bd 4e 4d 3b 3d 59 8a 59 be
       0.12735415 -0.09048471 0.04572802 -0.21244182
000030 a8 c5 d0 bd 31 e9 01 3c 65 07 08 be 75 a3 f2 bd
       -0.1019395 0.007929132 -0.13284071 -0.11847583
000040 df 1b cf bb 66 97 22 bd 5b de 97 bd 8f 8d aa 3d
       -0.006320461 -0.039695166 -0.07415458 0.083277814
000050 4f bf a5 3d f2 f9 a2 bd 66 f2 ef bc 0a 8e cb bc
       0.0809313 -0.079578295 -0.02929039 -0.024848003
000060 05 c3 88 bd ab e5 50 3c c7 a0 23 3e 14 0e ea 3c
       -0.06677822 0.01275007 0.159793 0.028571166
000070 7d b4 29 bc fe 9d 8b bd 48 f8 3c 3d 66 7a a7 3d
       -0.010357973 -0.06817244 0.046135217 0.081776425
000080 bb 68 72 bd a4 b1 4d bc d8 b7 ac bd 45 13 79 3d
       -0.05918191 -0.01255456 -0.08433503 0.060809392
000090 bf 9b 64 3d fc c5 80 3d e3 83 c4 3d 67 18 86 bd
       0.055812594 0.062877625 0.09595468 -0.06547623
0000a0 a8 f3 ac bc b4 c0 82 3d da 0d e5 3c 91 0d a8 3d
       -0.021112278 0.063844115 0.027960707 0.082057126
0000b0 26 7d 0c 3e b4 7e 48 3e 01 52 ed bd f1 1c ff bd
       0.13719615 0.19579583 -0.11587907 -0.12456692
0000c0 f8 63 b4 3d 59 68 ea bd 6a 98 c5 bd 38 55 1d 3e
       0.0880813 -0.11445684 -0.09648211 0.1536454
0000d0 18 a7 6e 3d 91 22 59 bc e8 31 b6 be f8 8e a6 bd
       0.05826482 -0.01325287 -0.3558495 -0.08132738
0000e0 e2 13 55 bc 2c b3 15 3d 0e f2 53 3d 80 a1 bb bc
       -0.013005229 0.036547825 0.051744513 -0.022904158
0000f0 7c 4e a2 bc 3d 28 ea 3c 1d 6a c7 3d e3 7c 7a bd
       -0.019812815 0.02858364 0.097370364 -0.061154258
000100 a5 15 11 3d bd 13 8c bd b1 68 c2 3c 71 d8 d0 3c
       0.035421032 -0.06839702 0.023731561 0.025493832
000110 8b 26 47 bd 8f 5a 2b 3e 2b 2b 9b 3d 80 a3 86 bd
       -0.04862074 0.16733764 0.07576593 -0.06574154
000120 f5 9e 78 3e 8e b2 49 3e 4a 6c cf 3d 71 94 4b bd
       0.24279387 0.1969702 0.101280764 -0.04970211
000130 25 22 8b 3d ec ec 9a bc 2a cb 46 3c 24 a0 a0 3d
       0.06793622 -0.018911801 0.012133399 0.078430444
000140 23 c9 c0 bd d1 f6 38 be 45 36 b3 bd 31 05 ee 3c
       -0.09413364 -0.18062903 -0.087505855 0.02905521
000150 5f 40 00 bc 54 2d 32 bd 1c 3f 21 3d eb db 7c bd
       -0.007827847 -0.04350026 0.039366826 -0.061733168
000160 98 90 8a 3d f3 a6 28 3e e6 b2 79 3d 4d b7 23 3e
       0.0676586 0.16469936 0.060961626 0.15987892
000170 06 af a8 3d 61 c9 ad bd bc 9b e6 bc ee 8a 9d 3a
       0.08236508 -0.084856756 -0.028150432 0.0012019554
000180 fc 76 02 be 1d 0a 93 3d 1b 04 06 bd 70 93 be bb
       -0.12740701 0.07179663 -0.03271876 -0.0058159158
000190 dc ac 99 bd fa a6 d7 bd 9c 8a b6 3d e7 0e 59 3c
       -0.075036734 -0.10529895 0.089131564 0.013248182
0001a0 b7 19 65 3d b8 dd 27 3d 49 22 b2 3c 95 13 65 3c
       0.055932727 0.04098293 0.021744864 0.0139817195
0001b0 44 05 5d be a2 c0 b5 bc 49 12 8e 3d 64 75 ae bc
       -0.2158404 -0.022186581 0.06937081 -0.02129621
0001c0 52 ce bb 3d e7 10 bb 3d 3c e3 d8 bd 28 a4 ce 3d
       0.09170212 0.09134083 -0.105902165 0.10089904
0001d0 2d d3 a4 3c 43 c4 8b bc 8b a9 1d be c7 1f 0a 3c
       0.020120228 -0.017061358 -0.15396707 0.008430428
0001e0 13 53 05 bd 73 14 25 bd fb 19 98 3d 42 eb 05 be
       -0.03254993 -0.040302705 0.074268304 -0.13078025
0001f0 d7 c9 5f be 17 79 43 bd ae f2 18 3e 2d 71 5c bd
       -0.2185434 -0.047722902 0.14936325 -0.05381887
000200 15 a7 b5 bd 58 3b b7 3d e5 7b 8e bd 9f 98 43 be
       -0.08869759 0.08946866 -0.06957225 -0.19101189
000210 6d 0c a0 3e 7e 4f fd 3d 24 9a 15 3e 62 08 0d 3e
       0.3125948 0.123686776 0.14609581 0.13772729
000220 50 a7 25 bd 9d 0b 18 be 88 ed d0 3d c6 a7 f7 3c
       -0.040442765 -0.1484818 0.102015555 0.030231368
000230 ed 9f f9 bd 18 08 fe 3d 9d a7 90 3d 37 c8 27 3c
       -0.121887065 0.124038875 0.0706322 0.010240606
000240 6f b7 01 be 57 a1 4d be f1 10 82 be 83 ff 7b 3d
       -0.1266763 -0.20081078 -0.2540355 0.06152297
000250 57 35 3e be df 33 44 be a1 c8 06 3e 96 96 69 bd
       -0.18575035 -0.19160412 0.13162471 -0.057028376
000260 cf f5 5b 3d 00 29 7a be ce 02 23 be 32 84 2e be
       0.05370122 -0.24429703 -0.15919039 -0.17042616
000270 20 d2 65 be 56 f4 47 be fd 0e 8e bd a2 c3 01 be
       -0.22443438 -0.195268 -0.069364525 -0.12672284
000280 ec c8 8e be 56 c7 79 3a 31 f7 89 be c5 fe 47 be
       -0.27887666 0.00095282996 -0.26946405 -0.1953078
000290 5b 5d 2b be c6 44 d8 bd 89 5b a5 bc 06 2e f0 bc
       -0.16734831 -0.105599925 -0.020185249 -0.02931882
0002a0 d0 83 1a 3e ec d1 84 3d 4c e5 e1 3d db 9c 1d be
       0.15089345 0.06485352 0.11030063 -0.15391867
0002b0 f2 4d 4f bd 2f 52 ef ba e9 09 81 bd af d9 34 3d
       -0.050611444 -0.0018258746 -0.06300718 0.04415291
0002c0 d3 04 22 3d 47 87 27 bd 39 2b d7 3d 1d d9 84 3d
       0.039555382 -0.040900495 0.10506291 0.064867236
0002d0 6c f8 34 be 62 d0 70 bd cf 4b 4a 3d c7 66 6f bd
       -0.1767289 -0.05879248 0.049388703 -0.058447625
0002e0 5b 82 08 3d 64 5f 19 3d 59 65 1d 3e 0c 78 55 3b
       0.03332744 0.037444487 0.15370692 0.0032572774
0002f0 8a a6 3b bd c0 2e 23 be ab e6 2b be 6b 19 25 3e
       -0.04581312 -0.15935802 -0.16787212 0.16122977
000300 96 49 8a bd 1a ae 86 be 4a cb 17 3d 55 28 34 3e
       -0.06752317 -0.26304704 0.037059106 0.1759351
000310 c3 78 34 bd 4e ae 97 bd d6 4c 42 be d7 54 10 bd
       -0.04406048 -0.07406293 -0.18974623 -0.03523716
000320 b8 76 0f be be d6 eb bd 6d 11 ee bd 20 cb 51 3d
       -0.14010131 -0.11515568 -0.116244175 0.051219106
000330 22 9a 9c 3c 6b b4 29 3d 07 74 1c 3e 87 11 84 3e
       0.019116465 0.041431826 0.15278636 0.25794622
000340 8b e2 6a 3d fb ad 59 bc df c8 bd 3d 58 b6 07 be
       0.057344954 -0.013286109 0.09266829 -0.13253152
000350 07 cc 52 be e6 3e 50 3d 80 74 47 ba b1 cd 49 bd
       -0.20585643 0.050841235 -0.00076086074 -0.04926843
000360 52 b2 0d 3e 6f 85 86 3d 83 03 2b 3d 5d 75 b0 bd
       0.13837555 0.06568419 0.041751396 -0.08616135
000370 f6 22 74 3d 0e e2 91 3d 25 20 c1 bd ee 9d dc bd
       0.059603654 0.07123195 -0.09429959 -0.1077231
000380 35 06 18 3b 7d 97 4f be b3 00 15 be 77 a8 a6 3d
       0.002319706 -0.20272632 -0.14551048 0.08137601
000390 4a f4 b6 bd c2 10 36 3c bb 96 38 3d 34 c9 19 bd
       -0.08933313 0.011112394 0.045065623 -0.037545398
0003a0 5b 96 c6 3d b5 cf 94 3d 71 8e c2 bd 40 aa 61 3d
       0.09696647 0.072661795 -0.09499825 0.055094004
0003b0 34 37 c4 3d 04 e8 9d bc de 04 fa bb 73 83 32 b9
       0.09580842 -0.019275673 -0.0076299747 -0.00017024371
0003c0 29 24 9f 3d ef 20 1d 3e 6b 8e a0 3c 54 13 be 3d
       0.07770569 0.15344594 0.01959916 0.0928103
0003d0 42 f6 f9 bd cd d3 99 bd 0d c6 1f bd 33 f0 9d 3d
       -0.12205173 -0.07511101 -0.039007235 0.0771183
0003e0 03 b9 6e 3d 42 81 e8 bb f4 17 13 3e aa 7f 5c 3e
       0.05828191 -0.007095487 0.14364606 0.21533075
0003f0 7a 7f 78 be 5c 19 f0 3c 40 b4 c1 3d 2a 2d a8 be
       -0.24267378 0.029308967 0.09458208 -0.32846957

conv2.bias f4 [64]
000000 ce 48 d4 bc 4c 2e 92 bd d0 a1 47 3d 5a 16 0d be
       -0.025913622 -0.07137737 0.0487383 -0.13778058
000010 ec be 18 be 98 7b d5 3c bd 27 86 bd b3 34 74 3d
       -0.14916581 0.02605991 -0.06550548 0.05962057
000020 87 58 02 bc 66 d0 f1 3d 04 69 7b bb 5d 5b ae bb
       -0.007955677 0.11807327 -0.0038362155 -0.00532095
000030 ae f2 89 3d 08 8e 08 3d ee 28 9f 3d 84 61 a7 bd
       0.067357406 0.033338577 0.077714786 -0.081728965
000040 39 f9 60 bd c6 14 13 bd 98 34 85 b7 02 ff 43 bd
       -0.054925177 -0.035908483 -1.5879326e-05 -0.047850616
000050 ef b1 a6 bd 79 48 d2 bc 13 6e 5e bd 24 05 d2 3c
       -0.08139407 -0.025669323 -0.054304194 0.025637217
000060 17 a5 6e 3d ae a0 28 3e 18 3a 09 3d 26 4e f8 3d
       0.05826291 0.16467544 0.03350267 0.12124281
000070 67 94 04 be 2c d1 d7 3c 0a f5 62 3d dd fc c6 bc
       -0.12947236 0.026344858 0.05540947 -0.024290496
000080 f2 d6 e0 3c 1c 45 de bd 3f ef 18 bd d4 da ba bc
       0.027446244 -0.10853025 -0.037337538 -0.022809424
000090 b3 3f 7f 3d f3 f8 72 bd b5 64 35 bd 27 72 16 bd
       0.062316608 -0.059319448 -0.044285495 -0.036729958
0000a0 37 67 13 bd e2 e3 d8 3c 4d 53 18 be d4 c2 a6 3d
       -0.035987105 0.02647585 -0.14875527 0.08142629
0000b0 c2 15 ed 3c c9 aa d8 3d 3c 57 4a 3d 18 c6 dd bd
       0.028941039 0.1057945 0.0493996 -0.10828799
0000c0 30 76 4c 3d 90 16 14 3d 62 e1 b8 bc eb 59 89 3d
       0.0499174 0.03615433 -0.022568408 0.067066036
0000d0 66 bc bb bd 69 33 21 3d 22 1a eb bd b6 5c 31 3d
       -0.091667935 0.03935567 -0.11479594 0.043301307
0000e0 57 33 d1 3b 66 bd 56 3c d2 ff c9 3d 04 15 18 be
       0.006384294 0.01310668 0.09863247 -0.14851767
0000f0 71 20 f9 3c b4 c7 14 3c 5b 72 16 bc a0 e9 57 bd
       0.030410977 0.009080816 -0.009182538 -0.052713037

bn2.weight f4 [64]
000000 6f ee 41 3f 8a f3 4c 3f b6 71 50 3f bf d8 37 3f
       0.75754446 0.8005911 0.8142351 0.71815103
000010 1e 7a 6a 3f f7 c7 5f 3f d1 da 45 3f f4 e1 39 3f
       0.91592586 0.874145 0.7728701 0.726104
000020 0e 87 1d 3f b9 eb 62 3f 73 9b 65 3f 64 1c 1a 3f
       0.615342 0.88640934 0.8969032 0.6019957
000030 13 74 30 3f 94 a6 84 3f cd 3e 61 3f 66 b3 35 3f
       0.68927115 1.0363336 0.8798645 0.70976865
000040 40 09 30 3f c4 34 03 3f e4 d9 75 3f e7 f4 28 3f
       0.68764114 0.5125239 0.960356 0.6599869
000050 55 16 81 3f 87 d4 56 3f 3e 67 80 3f ea 4c 44 3f
       1.008494 0.8391804 1.0031507 0.7667986
000060 18 cf 3c 3f 0e 69 2d 3f 39 e4 7e 3f bc cb 71 3f
       0.737535 0.67738426 0.9956699 0.944515
000070 be c7 24 3f ac a0 61 3f ab c8 2f 3f 27 2c 47 3f
       0.6436728 0.8813579 0.6866557 0.77801746
000080 11 f5 4d 3f 24 b9 89 3f 63 2f 6e 3f 5f 67 59 3f
       0.80452067 1.0759625 0.93041056 0.84923357
000090 3f 50 22 3f 75 20 63 3f 8c 93 81 3f a5 f2 40 3f
       0.63403696 0.887214 1.0123153 0.75370246
0000a0 ed be 59 3f 9d 2c 67 3f f3 c8 62 3f 9b fd 83 3f
       0.85056955 0.9030245 0.88587874 1.0311769
0000b0 2d 79 86 3f 8b 4e 43 3f 12 92 5b 3f 20 ae 65 3f
       1.050573 0.7629172 0.8576976 0.8971882
0000c0 06 2b 5e 3f ac ee 86 3f 0c 66 4d 3f 37 86 9a 3f
       0.867844 1.0541587 0.80233836 1.2072209
0000d0 32 56 8a 3f 47 98 2d 3f 0b 1b 62 3f 4b 74 8c 3f
       1.0807555 0.6781048 0.88322514 1.097299
0000e0 eb 62 7e 3f 45 dc 9e 3f 5f 41 5d 3f dc 0d 7e 3f
       0.99369687 1.2410971 0.86427873 0.992399
0000f0 82 af 5d 3f 83 c5 6c 3f e6 73 5a 3f 95 ea 88 3f
       0.8659593 0.9248888 0.85333097 1.0696589

bn2.bias f4 [64]
000000 c8 8e 9e be f5 49 e3 be 16 a1 42 bf a0 3f 19 bf
       -0.30968308 -0.44392362 -0.7602705 -0.5986271
000010 34 3d 57 bf 8d 54 14 bf 66 e8 de be 5e 73 bc be
       -0.84077764 -0.57941514 -0.4353668 -0.36806768
000020 43 83 bf be 4c 2a 01 bf 0d 8c 30 bf b7 40 aa be
       -0.37404832 -0.50455165 -0.689637 -0.33252499
000030 ab 7e 09 bf 04 c1 28 bf 97 5b 18 bf 14 52 04 bf
       -0.53708905 -0.6591952 -0.59514755 -0.5168774
000040 62 d3 d7 be 59 49 4b be 2c b8 02 bf d6 44 de be
       -0.4215346 -0.19852199 -0.51062274 -0.43411893
000050 f4 51 1a bf 7a 8f 08 bf dd bd 14 bf 19 bf c8 be
       -0.602813 -0.5334393 -0.5810221 -0.39208296
000060 59 60 df be e5 ca 94 be 39 ad 2a bf 84 34 3d bf
       -0.43628195 -0.29061046 -0.66670567 -0.7390826
000070 f7 91 f0 be 97 d4 15 bf 99 11 a0 be 66 41 19 bf
       -0.46986362 -0.5852751 -0.31263426 -0.59865415
000080 ee 1e 09 bf 56 44 0a bf 85 b6 1b bf 0c 79 23 bf
       -0.5356282 -0.5401052 -0.6082538 -0.6385658
000090 f4 f5 9c be ab a2 f0 be 62 7b 39 bf 5c 86 29 bf
       -0.30656397 -0.46999106 -0.7245389 -0.6622064
0000a0 12 ed da be ae db 21 bf b8 9e 2e bf d0 45 ef be
       -0.42758995 -0.6322583 -0.68210936 -0.4673295
0000b0 8d 4b 15 bf 8e 27 02 bf 49 78 01 bf cd ca 13 bf
       -0.58318406 -0.50841606 -0.50574166 -0.57731324
0000c0 02 37 16 bf c2 ae 12 bf 0d 02 fb be c1 4a 4b bf
       -0.58677685 -0.5729791 -0.49025002 -0.7941094
0000d0 2d bf 44 bf c3 91 d6 be 6d 6c 08 bf f4 ac 46 bf
       -0.7685421 -0.41908082 -0.53290445 -0.77607656
0000e0 1e 6c 24 bf 3f b7 36 bf 06 d1 f2 be b5 30 37 bf
       -0.64227474 -0.7137336 -0.47425097 -0.71558696
0000f0 99 21 44 bf f6 c4 27 bf d2 d4 98 be 6c 6f 5a bf
       -0.76613766 -0.65534914 -0.2984987 -0.85326266

bn2.running_mean f4 [64]
000000 80 2c e2 bf 37 5a a6 bf 6a b3 f2 bf e1 fd db bf
       -1.766983 -1.2996281 -1.8961003 -1.7186853
000010 f7 0b 21 c0 e8 2d 29 c0 2b bd 8d bf 89 b9 b1 bf
       -2.5163553 -2.643427 -1.1073354 -1.3884746
000020 ce ad 13 bf 05 6c f9 bf b9 17 be bf 92 55 09 bf
       -0.5768708 -1.948609 -1.485099 -0.53646195
000030 26 45 57 bf ad 18 87 c0 f0 66 ff bf b4 a2 b7 bf
       -0.8408989 -4.221762 -1.9953289 -1.4346528
000040 44 c4 ae bf 60 87 d7 3f 48 91 56 c0 c0 a2 ba bf
       -1.3653646 1.6838188 -3.3526173 -1.4580917
000050 9e 80 92 c0 b4 87 36 c0 c2 57 61 c0 27 65 30 c0
       -4.5782003 -2.8520327 -3.5209813 -2.7561738
000060 7a aa a7 bf d7 65 1f bf c3 35 54 c0 7a 7b 4a c0
       -1.30989 -0.6226477 -3.3157814 -3.1637864
000070 b7 a3 be bf 54 4e 01 c0 01 24 36 bf 82 c1 e8 bf
       -1.4893712 -2.0204058 -0.7114869 -1.8184054
000080 a2 3b f3 bf 1d 92 74 c0 ac 95 08 c0 ad 04 0d c0
       -1.9002573 -3.821418 -2.1341352 -2.2034104
000090 ff c4 19 bf fc da f1 bf 06 21 60 c0 43 0b 2b c0
       -0.6006622 -1.8894954 -3.5020156 -2.6725624
0000a0 d5 22 36 c0 a9 5f 68 c0 bf 31 ef bf aa 6c 27 c0
       -2.845876 -3.6308386 -1.8687056 -2.6160073
0000b0 9b d1 17 c0 fe 52 17 c0 21 b7 07 c0 a3 73 0b c0
       -2.3721683 -2.3644404 -2.1205523 -2.178933
0000c0 d7 a6 a5 bf 28 91 5e c0 fb d3 de bf 89 4f cf c0
       -1.294154 -3.4776096 -1.7408441 -6.478459
0000d0 75 e5 a7 c0 af 93 76 bf 2e 63 e3 bf 02 e4 4a c0
       -5.24676 -0.963191 -1.7764642 -3.1701665
0000e0 60 f1 2f c0 18 8d 9c c0 33 d5 66 c0 06 19 36 c0
       -2.7491074 -4.8922234 -3.6067626 -2.8452773
0000f0 5e 14 ee bf 6c ce 78 c0 f7 ef 2e c0 50 b5 6c c0
       -1.8599966 -3.887599 -2.7333963 -3.6985664

bn2.running_var f4 [64]
000000 d9 b4 fb 40 6d 04 77 40 f3 c6 97 40 ed ef 8f 40
       7.865826 3.8596451 4.743036 4.498038
000010 d5 aa cb 40 07 48 f8 40 23 f9 cc 40 85 96 80 40
       6.3646035 7.7587924 6.405412 4.018374
000020 ba 36 6b 40 84 c5 ca 40 54 f1 81 40 96 4b 36 40
       3.6752152 6.336611 4.060709 2.8483634
000030 e0 d5 69 40 68 50 5f 41 25 fa 01 41 4c b3 34 40
       3.653679 13.95713 8.12357 2.8234434
000040 09 ca 81 40 e5 b3 81 40 1a 2f 52 41 8d b8 86 40
       4.0559125 4.05321 13.136499 4.210028
000050 25 e7 59 41 72 a6 e3 40 c4 e2 00 41 7e 33 00 41
       13.618932 7.114068 8.055363 8.012571
000060 a9 e5 88 40 0e 41 4f 40 8a 63 07 41 05 42 e7 40
       4.2780347 3.2383456 8.461802 7.226809
000070 fc 12 66 40 51 bf 97 40 ea 0f 48 40 e1 d8 79 40
       3.5949087 4.742104 3.1259713 3.9038622
000080 34 0f d0 40 5a c5 67 41 dd bb ec 40 7e 7a a7 40
       6.501856 14.485682 7.3979325 5.2337027
000090 b1 21 3d 40 93 75 c5 40 c1 83 0d 41 dc 78 91 40
       2.9551814 6.1706023 8.8446665 4.5460033
0000a0 60 b3 55 41 7e 5b 5e 41 53 d7 a8 40 3d eb 22 41
       13.356293 13.897337 5.2762847 10.182431
0000b0 bd 40 05 41 d4 76 dc 40 16 c9 f7 40 22 4e b2 40
       8.328305 6.8895054 7.7432966 5.5720377
0000c0 00 35 81 40 c4 dc 26 41 1a e6 b5 40 44 43 e5 41
       4.0377197 10.428898 5.6843386 28.657845
0000d0 26 3a 96 41 ab 3d 53 40 1d 57 da 40 99 b2 5e 41
       18.778393 3.300639 6.823134 13.918603
0000e0 2d eb 07 41 94 0e c5 41 e7 dd 21 41 6c 11 4b 41
       8.494916 24.632118 10.116675 12.691753
0000f0 a3 3a a7 40 aa 64 5a 41 92 74 1d 41 ba 6b 44 41
       5.225908 13.649576 9.84096 12.2763

conv3.weight f4 [128, 64, 3, 3]
000000 80 19 cc 3d 12 eb 2e bd 1c 38 fa bc 72 b4 66 bc
       0.09965801 -0.04270465 -0.030544333 -0.014081107
000010 e6 23 d4 bc a8 53 d9 bd 77 82 85 3d 34 aa 56 39
       -0.025896024 -0.10611659 0.06519025 0.00020472036
000020 c6 4b e6 3c e4 2b 6c bd 7c 5b d0 be 19 c5 66 3d
       0.028112303 -0.057659045 -0.40694797 0.05634031
000030 c6 d4 9a 3c 0f 19 80 3d 22 51 4d bd 76 ef 4d 3e
       0.018900286 0.062547795 -0.050126202 0.20110878
000040 8c aa 73 3d a9 fc 0f 3d c2 91 34 3d dd 80 ca bd
       0.059488818 0.035153065 0.044084318 -0.0988786
000050 bc 5f 9e bd 8e 74 1e bd c2 95 1c be 02 1e 63 bb
       -0.07733104 -0.038685374 -0.15291503 -0.0034655337
000060 e4 e1 81 bd 73 c5 7f bd 86 41 41 be 53 5d 82 3d
       -0.06341913 -0.06244416 -0.18872651 0.063654564
000070 d9 30 5c 3d 39 45 c9 3c a2 e1 67 be 41 c9 41 be
       0.053757522 0.02456914 -0.22644666 -0.18924429
000080 b8 04 c9 3d 00 02 f4 3a d3 f0 27 3c 19 8d 3b be
       0.09815353 0.0018616319 0.010250288 -0.18315543
000090 24 cc 5a 3d 4c 92 d9 bd ae 3d 8d be 01 b1 8b 3e
       0.05341734 -0.10623607 -0.2758612 0.2728348
0000a0 d0 08 1f 3e 4f 1f 8c bd bb d6 d6 bc b5 e6 35 bd
       0.15530705 -0.06841909 -0.026225438 -0.044409472
0000b0 54 47 8f 3d 77 f4 97 bc 8c be 8f bd 20 d3 c2 bc
       0.06996027 -0.018549187 -0.07018766 -0.023782313
0000c0 a1 0b fd 3d ef 27 fd 3d c7 9b 93 be 1a 04 c3 3d
       0.12355734 0.12361132 -0.28829786 0.09522267
0000d0 44 9f 69 bd 9c 5e 24 be cb 90 de 3d bb 66 49 3a
       -0.057036653 -0.16051716 0.10867461 0.00076828495
0000e0 30 bc 93 bc b2 fc 70 3d 6c 4c b6 3c dc 40 19 3c
       -0.01803407 0.05883474 0.022253238 0.009353843
0000f0 20 0f 80 3d 83 60 0c be ec 22 b3 bb 4b 60 d5 3d
       0.06252885 -0.13708691 -0.0054668095 0.10418757
000100 32 8f f6 bc b1 9a 09 3d 11 c5 0d be 7b be 0f be
       -0.030097578 0.03359479 -0.13844706 -0.14037506
000110 dd f6 0a 3d 32 95 52 be 14 73 aa bd c3 cd 67 3d
       0.033926833 -0.20564726 -0.08322731 0.056592714
000120 7b aa fd bd ee b3 ae 3c a2 5c e2 bd aa 4a 09 3c
       -0.12386032 0.021326032 -0.110528246 0.008379618
000130 d5 4c 8e 3d c4 f6 d7 bb c5 81 f5 3d 7d 27 b4 3d
       0.06948248 -0.006590696 0.11987642 0.08796594
000140 ef 77 81 bd 33 37 04 3c 53 e0 07 3e fd 43 23 3e
       -0.06321704 0.008069801 0.13269167 0.15943904
000150 2f 70 52 be 13 aa e6 bd 2b dd eb bc 4f cc 29 be
       -0.20550607 -0.11262908 -0.028791985 -0.16581844
000160 74 00 7b be bb 2d 1d bd d5 ce 59 3d d0 e7 82 be
       -0.24511892 -0.03837369 0.053175766 -0.25567484
000170 b9 e6 3a be 49 6b b3 bc af 43 34 be f5 db a3 bc
       -0.18252076 -0.021901743 -0.17603944 -0.020002345
000180 38 07 b3 3c 38 74 bc bd 8c 8d d2 bd 63 84 f0 bc
       0.021854028 -0.092018545 -0.10280904 -0.029360002
000190 c1 35 27 bd a0 4c 19 b7 d3 55 38 3c 50 63 91 bd
       -0.040822748 -9.137351e-06 0.011250931 -0.070990205
0001a0 87 f8 8f bd 23 6e 52 bd cb 29 f0 3d b3 18 a1 3d
       -0.07029825 -0.051374566 0.117267214 0.07866039
0001b0 e4 f0 3a 3d a4 af b7 3b d9 ee c8 bb 16 d8 db 3d
       0.045639887 0.005605655 -0.0061319885 0.107345745
0001c0 ce 43 a4 bc 01 1f 44 3d d7 f4 c9 bd cc b7 17 3c
       -0.020051863 0.04788113 -0.098611526 0.009260129
0001d0 d1 ec 31 3d 42 1f f5 3d fd 3c 8c 3d 48 fc 24 bd
       0.043438736 0.119688526 0.0684757 -0.040279657
0001e0 c2 44 62 be ac 3e 0f be e1 61 c6 3d 61 2c 2b bd
       -0.22096542 -0.13988751 0.09686638 -0.04179037
0001f0 62 bd 62 bd 3e a0 2f 3c 8e 17 a3 bd eb fb a4 bc
       -0.05535639 0.010719357 -0.07963477 -0.020139655
000200 0e 60 bf 3b c8 1f ea bd 3b a6 61 bb 5f 11 7e 3d
       0.005840308 -0.11431843 -0.0034431356 0.062028285
000210 0a 46 02 bd 80 f3 0f 3b 98 f5 3f 3e 2d 47 c7 bd
       -0.031805076 0.0021965206 0.1874603 -0.097303726
000220 0b 46 3f 3d 80 ab 3c 3d 52 7d ae be 36 e9 8a bd
       0.046697658 0.046061993 -0.34079987 -0.06782763
000230 2d cb cc 3d d1 11 80 be a6 40 fd bd 00 99 03 be
       0.0999969 -0.25013593 -0.12365846 -0.12851334
000240 b1 a3 49 3d a5 a7 91 bd 56 e1 42 be be 38 dc 3d
       0.049228374 -0.07112054 -0.19031271 0.1075301
000250 90 f5 c1 3d eb 0b 1d be 3b 3f 20 be 0b 67 8e bd
       0.094706655 -0.15336578 -0.1564912 -0.06953248
000260 4c 1a 8a bd 75 5e 08 bd b5 2d a3 3c e8 6d 39 be
       -0.06743297 -0.033293206 0.019919256 -0.18108332
000270 2f 12 88 bc ad af 8c 3d 5b e3 08 be 91 97 64 3d
       -0.016610233 0.06869445 -0.13367979 0.055808607
000280 02 7d e3 3b 5d de be 3d 28 9b dc 3d 6c 17 5d 3d
       0.0069423923 0.09319756 0.10771781 0.053977415
000290 c2 4f 49 bd 79 ea b8 bd a5 96 64 bd 98 09 5d bd
       -0.04914833 -0.09029097 -0.05580773 -0.053964227
0002a0 6b 88 ab bc c6 29 86 3d e8 f7 97 3d 02 be 51 bd
       -0.020939073 0.065509364 0.07420331 -0.051206596
0002b0 c7 b0 58 3c d7 bd ee bd 72 e7 89 bd ca f9 24 bd
       0.013225741 -0.11657303 -0.06733598 -0.04027728
0002c0 57 ef 6d 3d 32 79 8f 3d 19 be b7 bd bf 61 c3 3c
       0.05808958 0.07005538 -0.08971805 0.02385032
0002d0 70 7c 8c bc 39 fa af bb 38 18 56 38 e4 c1 31 3e
       -0.01714918 -0.005370405 5.104413e-05 0.1735912
0002e0 ab d6 6d 3d 57 cb 4f 3d 55 c5 92 bd 7e 8d f8 3c
       0.05806605 0.05073103 -0.07166544 0.030340906
0002f0 4f 10 a0 3d 3d 71 db 3c cf a4 7f bc ea 1b 29 be
       0.078156106 0.026787395 -0.015603258 -0.16514555
000300 7f d5 0a 3c 31 49 09 3c 9a 5b e7 3c 47 b0 76 3c
       0.008473753 0.008379267 0.028241921 0.015056676
000310 8f 87 1d 3d 7a 39 82 bc 73 ca c0 ba 35 48 31 3d
       0.038459357 -0.015896548 -0.0014708772 0.043281753
000320 a2 54 1b 3d a5 df 6a be b5 a8 bd 3c d8 0d f6 3d
       0.03792251 -0.22936876 0.023151735 0.12014359
000330 45 92 db bd 7d 35 e8 bd e7 a1 84 bd e0 11 6b 3d
       -0.10721258 -0.11338327 -0.06476193 0.057390094
000340 05 40 8d 3d 95 73 65 bd 54 8f 6a be 4f 11 d7 bd
       0.068969764 -0.05601843 -0.22906238 -0.10501348
000350 2b aa b3 3c b7 3f 6f bd 7e 5b ef bd 14 1c b8 3d
       0.021931728 -0.058410373 -0.116873726 0.089897305
000360 6d f4 2f 3e f1 cc c1 bb ef db 90 bd 86 ac 0e be
       0.17183085 -0.0059143235 -0.07073199 -0.13933
000370 cd 6d d2 bc f1 b0 34 3d 1e 9f 44 bd 71 26 a6 bd
       -0.025687123 0.044114057 -0.04800331 -0.08112801
000380 72 75 1d bd 6a 91 64 bd 84 80 a1 3d ff f3 97 bd
       -0.038442083 -0.05580274 0.078858405 -0.074195854
000390 6d 06 01 3d 08 f4 db bd ad d8 e2 bc e6 cc 2b be
       0.03150027 -0.10739905 -0.02769121 -0.16777381
0003a0 98 62 53 be 55 02 6f bd f3 1c 30 3d a1 0f 30 bd
       -0.2064308 -0.058351833 0.042996358 -0.042983655
0003b0 b9 b8 0d bd 73 f1 4e 3e 1f 62 62 bc d3 df c3 3c
       -0.034599993 0.20209293 -0.013817339 0.023910439
0003c0 ad 11 17 3c af b6 ce 3d e3 62 40 be 0b 45 1b bc
       0.009220523 0.10093438 -0.18787722 -0.00947691
0003d0 d4 da 3b 3e 9f 13 11 3e 97 de 02 be b6 f5 2c bd
       0.18345195 0.14167641 -0.12780224 -0.042226516
0003e0 6d 21 0c bc 9a 7e 1d be 48 94 55 be 45 37 65 bd
       -0.008552891 -0.15380326 -0.20857346 -0.055960912
0003f0 9e 7e 9c 3a ca de c8 3d 36 37 50 3c 1c 50 14 be
       0.001193959 0.09808119 0.012708476 -0.14483684

conv3.bias f4 [128]
000000 2c 78 b1 39 4b 50 da 3c 7b 3a 4d 3c 47 63 9b 3c
       0.00033849606 0.026649615 0.01252615 0.018968238
000010 eb 27 32 3d 76 45 eb bb 47 4a 0c bb 0e 6e 0a bd
       0.0434951 -0.0071799112 -0.0021406577 -0.033796363
000020 c4 b2 56 3d 38 84 39 3d 73 22 aa 3d 59 fa 0e 3d
       0.052416578 0.04529211 0.08307352 0.03490672
000030 f7 36 5e 3d 17 cf d9 bb cf 13 fd bb eb 59 fb 3c
       0.054251637 -0.0066470015 -0.0077233086 0.030682525
000040 d3 ef 81 3c 28 14 87 bb 28 30 b7 3d 09 a4 2d 3d
       0.015861427 -0.004122276 0.08944732 0.042392764
000050 b0 a1 82 ba b6 f4 c3 bc 82 c4 56 3d 85 76 f1 bb
       -0.00099664 -0.023920398 0.0524335 -0.007368865
000060 59 2f 14 bc 17 ea 69 3d b6 bc c7 3b d8 26 b5 3c
       -0.009044492 0.05710801 0.006095494 0.022113249
000070 b9 e9 29 3d 93 d8 dd bc c4 9c ed 3c 2a a9 32 bd
       0.04148266 -0.02708081 0.029005416 -0.04361836
000080 af 5b 1d 3d 35 8f bf bc b5 fe 4c bd 2f bd 0e b8
       0.038417514 -0.023383716 -0.050047595 -3.403163e-05
000090 0d c8 50 3b ff d1 09 3d 90 27 a6 36 18 1d 6c 3c
       0.003185752 0.033647534 4.951791e-06 0.014411233
0000a0 e9 26 1f 3d 1c 5f c2 3b ed 29 1d 3b 2e 9c ee 3c
       0.038855467 0.005931748 0.0023981289 0.029127207
0000b0 1e e6 2d bb 8b 94 bc bc 26 90 d7 3c e7 60 33 bd
       -0.0026534866 -0.02302005 0.026313853 -0.043793585
0000c0 39 d8 92 bc 27 44 f2 bc 6f 06 37 bd 14 7f 4c 3c
       -0.017925369 -0.029573513 -0.04468387 0.01248147
0000d0 e7 2b 85 3b 27 06 a6 3c ff 71 7c bd e5 da 93 3b
       0.0040640715 0.020266606 -0.061632153 0.0045121782
0000e0 62 77 66 bd fc 26 83 3c cd e6 b8 3b 11 38 a4 bd
       -0.056266196 0.0160098 0.005642748 -0.08018506
0000f0 e7 89 27 bc 28 e2 95 bc 77 32 19 3d 41 4a c3 3c
       -0.01022575 -0.018296316 0.037401643 0.023839118
000100 07 18 0c bd 1c fb 4c 3d b4 02 60 3a b9 7c a5 bc
       -0.0342026 0.050044164 0.00085453247 -0.020201074
000110 16 32 11 3d 5b 53 61 bc a3 e0 86 bc a4 46 ef 3c
       0.035448156 -0.013752784 -0.016464537 0.029208489
000120 34 77 8f 3c 9e 7a 22 bd ea ca e3 39 fc 74 18 bd
       0.017512895 -0.039667718 0.00043447997 -0.03722094
000130 44 a5 a3 3c 15 bf db bc a3 d1 05 bd ae a3 80 3b
       0.019976266 -0.026824513 -0.03267063 0.003925762
000140 b1 ed 88 3c 5a 43 16 bd 78 4d e8 bc 68 db 83 3d
       0.016714903 -0.036685325 -0.028357252 0.06438333
000150 65 65 ae bc 10 c9 c0 bc 7a a3 b0 bc e3 fe 09 bd
       -0.021288583 -0.023533374 -0.021562327 -0.033690345
000160 88 13 8c 3c 26 e2 b9 bc ce 06 dd 3b 3c 23 91 ba
       0.017099157 -0.022690844 0.006745196 -0.0011073123
000170 21 18 78 bd 2b 87 d0 bc a8 3d b9 3b 4e 75 6d 3d
       -0.060569886 -0.025455078 0.005653102 0.0579732
000180 3e 78 03 3d 48 ef cc bc 2c ed 43 bd f4 14 81 bd
       0.032097094 -0.025016442 -0.047833607 -0.063028246
000190 3d f1 19 3c 5c 59 39 3d 72 95 99 bc 29 6c 81 bd
       0.009395895 0.045251235 -0.018748019 -0.06319458
0001a0 44 49 08 3d ab 80 0e 3d 91 83 92 3d 03 45 74 3c
       0.033272997 0.034790676 0.071540006 0.014909032
0001b0 35 6b 78 3d 5d 87 4b bc 80 d3 cd bc 7b 2b d0 bc
       0.060649116 -0.01242241 -0.025125265 -0.025411358
0001c0 67 19 7d bc a2 a6 1c bd 1a b3 e3 3c 09 f7 d1 ba
       -0.015447951 -0.03824485 0.027795363 -0.0016019057
0001d0 0a 5f 0e bb 24 de 82 bc b2 d8 66 bd de 35 e5 bb
       -0.0021724128 -0.015975066 -0.056359 -0.006994947
0001e0 29 f0 c7 bc 4b 35 1c 3d 49 89 60 bd d3 d2 c0 ba
       -0.02440651 0.03813676 -0.054818425 -0.0014711268
0001f0 82 d6 52 bb 5e 15 c3 bd 71 3e 98 3c 81 97 4e 3c
       -0.0032171314 -0.0952556 0.018584462 0.0126093635

bn3.weight f4 [128]
000000 fe b4 5b 3f 0f 39 3c 3f 5b 24 4e 3f 9a 57 52 3f
       0.8582305 0.73524565 0.80524224 0.8216492
000010 35 24 5e 3f ee d9 4b 3f ec af 52 3f 10 c9 32 3f
       0.86774 0.7962941 0.82299685 0.6983805
000020 3d 2a 52 3f 8e 07 60 3f 1c 39 37 3f 82 38 56 3f
       0.820957 0.8751153 0.71571517 0.83679974
000030 40 de 5d 3f 84 32 60 3f 21 3d 52 3f e3 ec 64 3f
       0.8666725 0.8757708 0.82124525 0.8942396
000040 c4 17 51 3f c6 9e 55 3f df 4a 5d 3f f3 fc 5d 3f
       0.8167689 0.83445394 0.8644237 0.86714095
000050 ec d2 5c 3f 2d f2 5f 3f b8 e2 5a 3f 99 ec 53 3f
       0.8625934 0.87478906 0.85502195 0.82782894
000060 e2 f6 56 3f 5b 82 53 3f 36 40 5a 3f 22 14 48 3f
       0.83970463 0.8262078 0.8525423 0.7815572
000070 01 3d 6a 3f cc c9 5d 3f be 32 49 3f 9f 78 3d 3f
       0.91499335 0.8663604 0.7859305 0.7401218
000080 7c 18 4b 3f a0 c7 6f 3f c2 11 3b 3f b3 ea 44 3f
       0.79334235 0.9366398 0.7307397 0.7692062
000090 0b 61 48 3f 9b 8e 5e 3f 83 80 50 3f 93 de 69 3f
       0.78273076 0.8693635 0.81446093 0.91355246
0000a0 eb c6 5d 3f e1 39 5b 3f cf 0b 57 3f 8b ab 56 3f
       0.8663165 0.8563519 0.84002393 0.83855504
0000b0 6b 1a 4a 3f af 6f 61 3f 64 f0 52 3f 08 bc 45 3f
       0.7894656 0.8806104 0.82398057 0.7724004
0000c0 6c 88 5d 3f 51 9f 60 3f 9f bf 4c 3f be 79 5e 3f
       0.8653629 0.877431 0.7997989 0.86904514
0000d0 62 95 4c 3f 42 ee 47 3f 3d 17 53 3f 3e 32 46 3f
       0.7991544 0.7809793 0.82457334 0.77420413
0000e0 d4 55 3b 3f 76 6e 61 3f a5 c9 3e 3f 1d d6 73 3f
       0.7317784 0.88059175 0.74526435 0.95248586
0000f0 d1 ab 4c 3f 92 80 5f 3f 68 45 52 3f 0c 21 59 3f
       0.7994967 0.8730556 0.82137156 0.8481605
000100 21 19 67 3f a5 d0 4f 3f 99 4a 4b 3f 2b 32 65 3f
       0.9027272 0.8117774 0.794107 0.89529675
000110 07 f7 47 3f 55 25 77 3f 93 d4 60 3f 14 0f 49 3f
       0.7811131 0.9654134 0.8782436 0.7853863
000120 32 e3 5e 3f 8f 5a 50 3f e3 5f 40 3f 8b 3c 35 3f
       0.8706542 0.8138818 0.7514631 0.70795506
000130 ae d5 52 3f e9 ae 59 3f a6 60 6d 3f 6a 09 57 3f
       0.823573 0.85032517 0.927256 0.8399874
000140 fe 18 52 3f 88 60 4f 3f 42 41 5d 3f 1e dc 57 3f
       0.82069385 0.8100667 0.864277 0.8432025
000150 f6 19 51 3f 6e 52 6b 3f 9f 7c 61 3f 5a e1 3f 3f
       0.8168024 0.9192265 0.8808078 0.74953234
000160 ea 58 5c 3f ac f9 41 3f c3 37 55 3f c7 b7 4a 3f
       0.8607317 0.75771594 0.8328821 0.7918667
000170 88 41 4c 3f 88 d2 50 3f 58 a0 70 3f fc e9 4f 3f
       0.7978749 0.81571245 0.93994665 0.81216407
000180 21 b7 52 3f 28 6a 41 3f a6 4d 56 3f b3 76 53 3f
       0.8231068 0.75552607 0.8371223 0.82602996
000190 75 0c 65 3f 1f 3e 4b 3f 38 bc 60 3f ea 2d 54 3f
       0.8947213 0.79391664 0.877872 0.8288256
0001a0 ff c7 49 3f c5 e1 5b 3f de 11 5c 3f c4 01 48 3f
       0.78820795 0.8589137 0.85964763 0.78127694
0001b0 b4 bb 36 3f 7c 5d 41 3f cd 1f 5f 3f 0a 66 56 3f
       0.7138016 0.7553327 0.871579 0.8374945
0001c0 b9 ed 66 3f 38 6a 54 3f f3 75 48 3f c2 6c 6d 3f
       0.90206486 0.82974577 0.78304976 0.92744076
0001d0 4a bd 62 3f 53 43 43 3f a2 31 5b 3f 91 e0 6a 3f
       0.8857008 0.76274604 0.8562261 0.9174891
0001e0 7b 8e 4c 3f 1f 2d 59 3f a9 05 5c 3f 84 94 52 3f
       0.7990491 0.84834474 0.85946137 0.82257867
0001f0 f1 31 53 3f 9a 8b 5b 3f e1 ad 63 3f 8b 8c 61 3f
       0.8249808 0.8575989 0.88937193 0.88105077

bn3.bias f4 [128]
000000 cb 41 29 bf 77 c8 f2 be 89 55 40 bf 27 c2 51 bf
       -0.6611602 -0.47418568 -0.75130516 -0.8193688
000010 3c 98 d1 be 9f be 68 bf 72 90 e6 be a6 55 d5 be
       -0.40936458 -0.90915865 -0.45032078 -0.41666907
000020 fb 2f 1b bf e1 3d 2a bf 38 c1 3c bf 0e f4 39 bf
       -0.6062009 -0.6650067 -0.7373233 -0.7263802
000030 e7 f5 35 bf 56 d1 21 bf 92 28 37 bf 9f 01 0d bf
       -0.7107834 -0.63210046 -0.7154628 -0.550806
000040 ae e3 24 bf f8 00 25 bf 44 c4 37 bf 8b dc 0b bf
       -0.6440991 -0.64454603 -0.7178385 -0.54633397
000050 95 17 15 bf 3e a5 2c bf 4a ca 35 bf ac 8a 0f bf
       -0.5823911 -0.6743964 -0.71011794 -0.5607097
000060 ca 27 0d bf 48 d2 5d bf 4f c5 33 bf 3a 79 d0 be
       -0.5513884 -0.8664899 -0.70222944 -0.4071749
000070 f6 79 21 bf e1 2d 4d bf 22 cd 25 bf 12 6e 28 bf
       -0.6307672 -0.8014813 -0.6476613 -0.65792954
000080 a5 81 f3 be 8c 28 2b bf 20 86 f8 be 8b bd ad be
       -0.47559848 -0.66858745 -0.4853983 -0.33933672
000090 db ce 2e bf fa a5 4e bf e4 26 21 bf 73 e2 2b bf
       -0.68284386 -0.8072201 -0.6294997 -0.6714241
0000a0 74 aa 40 bf 3f 17 2f bf ec 51 29 bf b8 b0 16 bf
       -0.7526009 -0.68394846 -0.6614063 -0.588634
0000b0 d7 cd 26 bf ad 42 6b bf 52 23 1b bf ae d7 0f bf
       -0.65157837 -0.91898614 -0.6060077 -0.56188476
0000c0 dd ea 47 bf db d8 20 bf 24 f3 31 bf 8b 0d 3d bf
       -0.7809275 -0.62830895 -0.6951163 -0.7384879
0000d0 fb c2 0e bf da dd 2f bf 75 c1 29 bf e4 97 f9 be
       -0.55766267 -0.68697894 -0.66310817 -0.48748696
0000e0 fb b9 0c bf fc a7 36 bf 9d 9d 18 bf bc 3a 53 bf
       -0.54971284 -0.71350074 -0.596155 -0.82511497
0000f0 32 f0 4f bf 46 19 33 bf e6 4a 35 bf dc d3 26 bf
       -0.81225884 -0.6996044 -0.7081741 -0.6516702
000100 30 9f 4a bf fc 79 07 bf 6a 0f 0c bf 2e c6 2c bf
       -0.7914915 -0.5292051 -0.5471102 -0.674899
000110 36 99 37 bf 47 dd 34 bf a5 83 55 bf 4f a2 1d bf
       -0.71718156 -0.7065014 -0.83404 -0.6157579
000120 03 c7 0e bf 80 61 1a bf ef 59 1c bf 16 83 fb be
       -0.5577242 -0.60305023 -0.6107473 -0.49123448
000130 5f fc 09 bf 67 85 2e bf 57 89 37 bf a5 b0 4c bf
       -0.5390071 -0.68172306 -0.7169394 -0.7995704
000140 53 9b 2a bf 9e f4 39 bf 8c 74 0f bf f8 53 3b bf
       -0.66643256 -0.7263888 -0.5603721 -0.73175
000150 e0 55 15 bf 18 49 33 bf 03 43 2a bf 21 3a 08 bf
       -0.5833416 -0.7003341 -0.665085 -0.532137
000160 61 2a 2b bf 6c 40 16 bf 54 da 25 bf d8 9d 0a bf
       -0.6686154 -0.5869205 -0.6478627 -0.541471
000170 37 8b 47 bf 97 5d 2c bf eb 4f 58 bf e7 87 15 bf
       -0.779468 -0.67330307 -0.84496945 -0.58410496
000180 dd 8c 19 bf 2e 7b b3 be e3 10 01 bf 5c 93 1c bf
       -0.59980565 -0.35054916 -0.5041639 -0.6116235
000190 00 fc 5f bf 51 14 38 bf 78 81 10 bf 95 08 2c bf
       -0.87493896 -0.71906 -0.56447554 -0.67200595
0001a0 b7 bf 0c bf 7f 51 38 bf cf 16 37 bf c0 b7 0e bf
       -0.54980034 -0.71999353 -0.7151918 -0.5574913
0001b0 b8 8e 13 bf 42 60 bf be 06 c9 2a bf ed 29 3f bf
       -0.57639647 -0.37378126 -0.6671299 -0.7467335
0001c0 f4 29 1d bf ac 1b 17 bf 63 e6 40 bf 7c 9f 40 bf
       -0.6139214 -0.590266 -0.7535154 -0.75243354
0001d0 c1 5b 2f bf 7b 61 bf be 24 4c 08 bf 22 f0 38 bf
       -0.6849938 -0.3737906 -0.5324118 -0.72241414
0001e0 09 97 1b bf 28 e4 d2 be 76 c7 4e bf c6 fd 12 bf
       -0.60777336 -0.41189694 -0.80773103 -0.5741848
0001f0 6b b0 3b bf 78 26 2b bf a3 6e 30 bf 3b 8f 4f bf
       -0.7331607 -0.66855574 -0.6891882 -0.8107793

bn3.running_mean f4 [128]
000000 c2 e5 ca bf 46 10 b0 bf 4a f1 c9 bf 5b 67 e8 bf
       -1.5851367 -1.3754966 -1.577676 -1.8156542
000010 e6 f5 3f bf 78 40 af bf f5 0a be bf e4 2e e1 be
       -0.74984586 -1.3691549 -1.4847094 -0.43981087
000020 07 51 74 bf c4 d5 8e bf f0 b3 3d bf cc 52 01 c0
       -0.9543614 -1.1158986 -0.7410269 -2.0206785
000030 bc e5 d1 bf 6a 65 ac bf f8 68 c1 bf 8e 11 bb bf
       -1.6398234 -1.3468449 -1.5110159 -1.4614732
000040 1b b1 fe bf 46 1c 22 bf 39 a5 81 bf 61 5a b5 bf
       -1.9897798 -0.6332439 -1.0128547 -1.4168206
000050 5c 73 b7 bf db 5e f5 bf 0c da 34 bf 8a 93 cc bf
       -1.433208 -1.9169573 -0.70645213 -1.5982525
000060 ba 89 ca bf 59 d2 97 bf 9d 7e ce bf db c7 3a 3e
       -1.5823281 -1.1861068 -1.6132389 0.18240301
000070 22 1e 11 c0 23 33 02 c0 3d b6 43 3e 8d ec b1 bf
       -2.2674642 -2.0343711 0.19112487 -1.3900315
000080 63 c5 7d bf ac ca 8c bf 7c cc 74 bf 02 49 51 be
       -0.99129313 -1.099935 -0.9562452 -0.20438007
000090 d0 28 fc bf 2a 92 a8 bf a4 95 6c be ad 49 08 c0
       -1.9699955 -1.3169606 -0.23103958 -2.1294968
0000a0 8b 90 20 c0 ea ce f9 bf 77 68 0f c0 8e 98 12 c0
       -2.5088222 -1.951627 -2.240751 -2.2905612
0000b0 d2 f1 96 bf c1 c2 f0 bf dc 1d f2 bf cd 5e 99 bf
       -1.1792548 -1.8809434 -1.8915362 -1.1982056
0000c0 8e db 88 bf cd 2b 03 c0 9b e6 75 bf c2 ec e3 bf
       -1.0692003 -2.0495484 -0.96055 -1.7806628
0000d0 91 4d 0f c0 d5 f0 99 bf 5e a6 25 c0 86 0d 7e bf
       -2.2391093 -1.2026621 -2.5882792 -0.99239385
0000e0 5a a8 b6 bf 9a da 08 c0 02 21 83 bf 6f 8f 24 c0
       -1.4270127 -2.1383424 -1.0244448 -2.5712545
0000f0 6e 93 a0 bf a2 f4 ac bf 38 61 e9 bf e1 e8 f2 bf
       -1.2544992 -1.3512156 -1.8232794 -1.8977319
000100 e1 3b 08 c0 01 53 1e c0 bc 63 45 bf bd 8d bf bf
       -2.1286547 -2.4738162 -0.7710531 -1.496513
000110 4d 37 81 bf 80 53 e1 bf 0f 83 b5 bf 28 bc 8f be
       -1.0095001 -1.7603607 -1.4180621 -0.2807324
000120 7a e9 3c bf 04 b0 b8 bf bf 92 33 bf c5 82 30 bf
       -0.73793757 -1.4428716 -0.7014579 -0.6894954
000130 8f d0 1c c0 f1 a1 b7 bf d6 72 ba bf 56 5f ca bf
       -2.4502294 -1.4346296 -1.4566295 -1.5810344
000140 cd 87 cb bf fa d9 e7 bf 20 e1 88 bf 1d ce 3d c0
       -1.5900818 -1.8113396 -1.0693703 -2.9657052
000150 99 25 dd bf 59 09 b6 bf c8 69 b1 bf 4f 2c eb be
       -1.7277099 -1.4221603 -1.3860407 -0.45932242
000160 e4 c0 10 c0 ca eb 9a 3c d9 4a 0a c0 fe 11 63 bf
       -2.261773 0.018911261 -2.1608183 -0.8869933
000170 b0 71 91 bf 8f ab 94 bf 30 d8 44 bf c2 c5 5c 3d
       -1.136282 -1.1614856 -0.76892376 0.053899534
000180 87 58 64 bf 4c 09 8f bf cb 5e a6 bf 80 83 97 bf
       -0.8919758 -1.1174712 -1.2997679 -1.1837006
000190 f0 aa ad bf 2a 62 12 be e8 01 f5 bf e7 d0 38 bf
       -1.3567791 -0.14295259 -1.9141207 -0.7219376
0001a0 0c 99 06 bf cf ab be bf c0 c7 dc bf 9e c6 ef bf
       -0.5257728 -1.4896182 -1.7248459 -1.8732488
0001b0 5b 9b d2 bf 83 3a d2 bf 4d df c2 bf 87 1c e6 bf
       -1.6453661 -1.6424106 -1.5224396 -1.7977456
0001c0 d8 73 28 c0 fc 68 91 bf ef 53 8b bf 8e cc c1 bf
       -2.6320705 -1.1360164 -1.088499 -1.514055
0001d0 b3 7b 80 bf 6c 0a 8a bf d0 5e 6b bf 63 96 1f c0
       -1.003775 -1.078443 -0.9194155 -2.4935539
0001e0 16 0e 4e bf b9 56 30 bf 47 42 81 bf b1 77 fb bf
       -0.80490243 -0.6888233 -1.0098351 -1.9645902
0001f0 ee 3c a0 bf 94 ac db bd 1e 5c ee bf e9 da e9 bf
       -1.2518594 -0.10726276 -1.8621862 -1.8269931
